…
  type: &quot;SoftmaxWithLoss&quot;
  bottom: &quot;ip2&quot;
  bottom: &quot;label&quot;
  top: &quot;loss&quot;
}
I0625 21:21:50.991331 19613 layer_factory.hpp:77] Creating layer otto
I0625 21:21:50.992022 19613 net.cpp:91] Creating Layer otto
I0625 21:21:50.992053 19613 net.cpp:399] otto -&amp;gt; data
I0625 21:21:50.992209 19613 net.cpp:399] otto -&amp;gt; label
I0625 21:21:50.992393 19615 db_lmdb.cpp:35] Opened lmdb train_data_lmdb
I0625 21:21:50.992591 19613 data_layer.cpp:41] output data size: 64,93,1,1
I0625 21:21:50.992703 19613 net.cpp:141] Setting up otto
I0625 21:21:50.992738 19613 net.cpp:148] Top shape: 64 93 1 1 (5952)
I0625 21:21:50.992756 19613 net.cpp:148] Top shape: 64 (64)
I0625 21:21:50.992764 19613 net.cpp:156] Memory required for data: 24064
I0625 21:21:50.992781 19613 layer_factory.hpp:77] Creating layer ip1
I0625 21:21:50.992805 19613 net.cpp:91] Creating Layer ip1
I0625 21:21:50.992822 19613 net.cpp:425] ip1 &amp;lt;- data
I0625 21:21:50.992849 19613 net.cpp:399] ip1 -&amp;gt; ip1
I0625 21:21:50.992956 19613 net.cpp:141] Setting up ip1
I0625 21:21:50.992977 19613 net.cpp:148] Top shape: 64 30 (1920)
I0625 21:21:50.992990 19613 net.cpp:156] Memory required for data: 31744
I0625 21:21:50.993027 19613 layer_factory.hpp:77] Creating layer relu1
I0625 21:21:50.993052 19613 net.cpp:91] Creating Layer relu1
I0625 21:21:50.993067 19613 net.cpp:425] relu1 &amp;lt;- ip1
I0625 21:21:50.993083 19613 net.cpp:386] relu1 -&amp;gt; ip1 (in-place)
I0625 21:21:50.993108 19613 net.cpp:141] Setting up relu1
I0625 21:21:50.993122 19613 net.cpp:148] Top shape: 64 30 (1920)
I0625 21:21:50.993135 19613 net.cpp:156] Memory required for data: 39424
I0625 21:21:50.993144 19613 layer_factory.hpp:77] Creating layer ip2
I0625 21:21:50.993160 19613 net.cpp:91] Creating Layer ip2
I0625 21:21:50.993173 19613 net.cpp:425] ip2 &amp;lt;- ip1
I0625 21:21:50.993191 19613 net.cpp:399] ip2 -&amp;gt; ip2
I0625 21:21:50.993227 19613 net.cpp:141] Setting up ip2
I0625 21:21:50.993243 19613 net.cpp:148] Top shape: 64 9 (576)
I0625 21:21:50.993258 19613 net.cpp:156] Memory required for data: 41728
I0625 21:21:50.993279 19613 layer_factory.hpp:77] Creating layer loss
I0625 21:21:50.993310 19613 net.cpp:91] Creating Layer loss
I0625 21:21:50.993335 19613 net.cpp:425] loss &amp;lt;- ip2
I0625 21:21:50.993361 19613 net.cpp:425] loss &amp;lt;- label
I0625 21:21:50.993391 19613 net.cpp:399] loss -&amp;gt; loss
I0625 21:21:50.993443 19613 layer_factory.hpp:77] Creating layer loss
…
  type: &quot;SoftmaxWithLoss&quot;
  bottom: &quot;ip2&quot;
  bottom: &quot;label&quot;
  top: &quot;loss&quot;
}
I0625 21:21:50.994300 19613 layer_factory.hpp:77] Creating layer simple
I0625 21:21:50.994504 19613 net.cpp:91] Creating Layer simple
I0625 21:21:50.994531 19613 net.cpp:399] simple -&amp;gt; data
I0625 21:21:50.994581 19613 net.cpp:399] simple -&amp;gt; label
I0625 21:21:50.994736 19617 db_lmdb.cpp:35] Opened lmdb test_data_lmdb
I0625 21:21:50.994822 19613 data_layer.cpp:41] output data size: 100,93,1,1
I0625 21:21:50.994921 19613 net.cpp:141] Setting up simple
I0625 21:21:50.994968 19613 net.cpp:148] Top shape: 100 93 1 1 (9300)
I0625 21:21:50.995007 19613 net.cpp:148] Top shape: 100 (100)
I0625 21:21:50.995019 19613 net.cpp:156] Memory required for data: 37600
I0625 21:21:50.995035 19613 layer_factory.hpp:77] Creating layer label_simple_1_split
I0625 21:21:50.995079 19613 net.cpp:91] Creating Layer label_simple_1_split
I0625 21:21:50.995095 19613 net.cpp:425] label_simple_1_split &amp;lt;- label
I0625 21:21:50.995136 19613 net.cpp:399] label_simple_1_split -&amp;gt; label_simple_1_split_0
I0625 21:21:50.995157 19613 net.cpp:399] label_simple_1_split -&amp;gt; label_simple_1_split_1
I0625 21:21:50.995282 19613 net.cpp:141] Setting up label_simple_1_split
I0625 21:21:50.995308 19613 net.cpp:148] Top shape: 100 (100)
I0625 21:21:50.995323 19613 net.cpp:148] Top shape: 100 (100)
I0625 21:21:50.995337 19613 net.cpp:156] Memory required for data: 38400
I0625 21:21:50.995352 19613 layer_factory.hpp:77] Creating layer ip1
I0625 21:21:50.995379 19613 net.cpp:91] Creating Layer ip1
I0625 21:21:50.995393 19613 net.cpp:425] ip1 &amp;lt;- data
I0625 21:21:50.995412 19613 net.cpp:399] ip1 -&amp;gt; ip1
I0625 21:21:50.995515 19613 net.cpp:141] Setting up ip1
I0625 21:21:50.995549 19613 net.cpp:148] Top shape: 100 30 (3000)
I0625 21:21:50.995573 19613 net.cpp:156] Memory required for data: 50400
I0625 21:21:50.995620 19613 layer_factory.hpp:77] Creating layer relu1
I0625 21:21:50.995649 19613 net.cpp:91] Creating Layer relu1
I0625 21:21:50.995679 19613 net.cpp:425] relu1 &amp;lt;- ip1
I0625 21:21:50.995738 19613 net.cpp:386] relu1 -&amp;gt; ip1 (in-place)
I0625 21:21:50.995769 19613 net.cpp:141] Setting up relu1
I0625 21:21:50.995801 19613 net.cpp:148] Top shape: 100 30 (3000)
I0625 21:21:50.995843 19613 net.cpp:156] Memory required for data: 62400
I0625 21:21:50.995867 19613 layer_factory.hpp:77] Creating layer ip2
I0625 21:21:50.995970 19613 net.cpp:91] Creating Layer ip2
I0625 21:21:50.995993 19613 net.cpp:425] ip2 &amp;lt;- ip1
I0625 21:21:50.996019 19613 net.cpp:399] ip2 -&amp;gt; ip2
I0625 21:21:50.996069 19613 net.cpp:141] Setting up ip2
I0625 21:21:50.996107 19613 net.cpp:148] Top shape: 100 9 (900)
I0625 21:21:50.996150 19613 net.cpp:156] Memory required for data: 66000
I0625 21:21:50.996211 19613 layer_factory.hpp:77] Creating layer ip2_ip2_0_split
I0625 21:21:50.996248 19613 net.cpp:91] Creating Layer ip2_ip2_0_split
I0625 21:21:50.996287 19613 net.cpp:425] ip2_ip2_0_split &amp;lt;- ip2
I0625 21:21:50.996340 19613 net.cpp:399] ip2_ip2_0_split -&amp;gt; ip2_ip2_0_split_0
I0625 21:21:50.996371 19613 net.cpp:399] ip2_ip2_0_split -&amp;gt; ip2_ip2_0_split_1
I0625 21:21:50.996412 19613 net.cpp:141] Setting up ip2_ip2_0_split
I0625 21:21:50.996438 19613 net.cpp:148] Top shape: 100 9 (900)
I0625 21:21:50.996472 19613 net.cpp:148] Top shape: 100 9 (900)
I0625 21:21:50.996495 19613 net.cpp:156] Memory required for data: 73200
I0625 21:21:50.996522 19613 layer_factory.hpp:77] Creating layer accuracy
I0625 21:21:50.996582 19613 net.cpp:91] Creating Layer accuracy
I0625 21:21:50.996613 19613 net.cpp:425] accuracy &amp;lt;- ip2_ip2_0_split_0
I0625 21:21:50.996639 19613 net.cpp:425] accuracy &amp;lt;- label_simple_1_split_0
I0625 21:21:50.996666 19613 net.cpp:399] accuracy -&amp;gt; accuracy
…
